Saved Models/IrisModel.pt (torch, 2599 bytes, 6 tensors)

fc1.weight f4 [8, 4]
00000000: 0a8e f73d 3100 e7be d770 c6be a6f2 2d3c
00000010: 0829 c6be f07d a23d 60a1 173e da44 f4be
00000020: 6746 c43e 42c2 d43d d627 073f 7ed1 dcbd
00000030: 9893 2e3f e02c 103f a47f b8be 6910 aabf
00000040: a3c2 a93e ebc1 26bf ebe7 543f 87bc 763f
00000050: 1618 e13e 3ab6 6e3f 1ff6 2dbf 818c 95bf
00000060: a898 283e 700d e4bd ecba d7be 58f0 b5be
00000070: 9c64 a3be 9069 133e 38ff b2be e482 693e
0.12087639 -0.45117334 -0.38757965 0.010616934 -0.3870318 0.07934177 0.14807653 -0.4770878
0.38334963 0.10388614 0.5279516 -0.10782145 0.6819396 0.56318474 -0.36034882 -1.3286258
0.3315631 -0.65139645 0.8316638 0.9638142 0.4396369 0.93246806 -0.67953676 -1.1683503
0.16464484 -0.111353755 -0.42134798 -0.3553493 -0.31912696 0.14395738 -0.3496034 0.22803837

fc1.bias f4 [8]
00000000: 7068 3c3e 1cbc 4fbe c3ce 2e3f 2559 173f
00000010: a81c c6bd 1df5 173f eadc 9fbe f090 c13e
0.18399215 -0.20286602 0.68284243 0.591204 -0.096734345 0.5935839 -0.31223232 0.3780589

fc2.weight f4 [9, 8]
00000000: 3aa1 5ebe 212c a83d 7a40 e13d 332e b1be
00000010: bd43 d2be 926c db3d 8ae5 b2be 111c 87be
00000020: 58c6 6d3e c5bf f2bd a2b1 433f ae7c 85bc
00000030: 169f 033f 59f7 29bf 402e 8f3d 7031 a7be
00000040: c4e6 b4be 8d12 8bbe 74b6 b63d 058b 0fbf
00000050: a537 1a3f 49dc 44bf 270a 9c3e 892c 57be
00000060: 40c8 94bd b492 78bd 5f2d 363e ca0c 37bd
00000070: e536 07be 8fd5 efbd 99b0 99be f4f0 e6bd
00000080: 7177 0b3e a5c6 43be fe14 003e fab4 30bf
00000090: 5ff1 513f 1b16 97be e849 50be f69e 3a3c
000000a0: 9c47 a1bc 4e61 803d 7646 6bbe 4cde 61be
000000b0: 25b5 54bd be2b 8bbe 4247 213d 0717 39be
000000c0: 1b11 86be 53ea 8ebc 5b70 933e d46f 4a3d
000000d0: c857 4c3f 1dc7 1cbf 0342 e2bd 36b8 7fbd
000000e0: 2f81 fcbd 7c94 afbe bbc8 243f 93be 0e3f
000000f0: 55d1 30be 28e5 763f 2066 b4be 81fa 9f3e
00000100: 17d3 acbe 372c 55be 0d22 f53d b73c 27be
00000110: ab4e 38be dd4a a1be 6d30 dd3d 49ee 913e
-0.2174119 0.08211542 0.10998626 -0.3460556 -0.41067305 0.107140675 -0.3494075 -0.263886
0.23220193 -0.118529834 0.7644292 -0.016294803 0.5141462 -0.6639305 0.06991243 -0.32654905
-0.3533231 -0.2716259 0.08921519 -0.560715 0.60241157 -0.7689863 0.30476496 -0.21013083
-0.07264757 -0.060686782 0.17790745 -0.04468993 -0.13204534 -0.11710655 -0.30017546 -0.11276427
0.13619782 -0.19118746 0.12508008 -0.6902615 0.8200893 -0.29509053 -0.20340693 0.011390438
-0.019687466 0.062685594 -0.22976097 -0.22057456 -0.051930565 -0.2718181 0.039374597 -0.1807519
-0.26184925 -0.017445719 0.28796658 0.049423054 0.79821444 -0.6124132 -0.11047747 -0.062431537
-0.12329327 -0.34292972 0.6436879 0.55759543 -0.17267354 0.96443415 -0.35234165 0.31245807
-0.337548 -0.20817648 0.11969385 -0.16331755 -0.1799876 -0.3150243 0.10800252 0.2850211

fc2.bias f4 [9]
00000000: 7c94 cd3c dc43 073f 2925 1abf 477a e7be
00000010: c5c7 01bf 04de 12bd cb7c 2a3c 79e9 fe3e
00000020: 02ef 01bd
0.025095217 0.5283792 -0.6021295 -0.45210478 -0.5069545 -0.03585626 0.0104057295 0.497875
-0.031722076

out.weight f4 [3, 9]
00000000: d25c 0fbe c300 05bf cf81 1cbe 64d7 15bd
00000010: eb76 4cbf 431a 683e b65e 0dbf 129b 2d3f
00000020: 1e53 973e 16b8 cd3d ec40 063f 60e7 7abf
00000030: b2d9 0cbe 006e 02bf b02f 8b3e 2f9c a43e
00000040: f69e 063e 5854 4f3e 53ee 44be 8d71 583e
00000050: f941 233f 3fb7 25bd 531a 323f e6d2 a4be
00000060: b558 433f a659 85bf 37c1 adbd
-0.14000252 -0.5195429 -0.15283893 -0.036582366 -0.79868954 0.22666268 -0.5522264 0.67814744
0.295556 0.10044877 0.5244281 -0.980093 -0.13754919 -0.50949097 0.2718482 0.3215041
0.13146576 0.20247018 -0.19231538 0.21137066 0.6377254 -0.04045796 0.6957142 -0.32192153
0.7630723 -1.0417984 -0.084841184

out.bias f4 [3]
00000000: ea04 083f 3c64 85be ac8f 0abf
0.531325 -0.26053035 -0.54125476
